python/xVARep/xVARep.pt (torch, 463391 bytes, 4 tensors)

fc1.weight f4 [256, 193]
00000000: 1581 843c ecbe 70bd 5208 1dbe a46f af3d
00000010: dddd 593d dcd6 9a3e 580b dbbd edbe 4d3e
00000020: 9882 acbd 0d30 e63d 620d bfbd f2ec 003e
00000030: ac01 863d bee7 bcbc 366d b23c 5f58 91bd
00000040: cd27 e2bc 5177 62bd 0d33 adbd ccda 65bd
00000050: 9a24 c0bd 6415 9dbc fb88 00be 22b4 b53c
00000060: 4d2c 693d 22a2 fbbc 1198 713d 20f1 8dbd
00000070: 1f08 913d 5075 10bd f9d5 da3a 774e e4ba
00000080: c9ee 183d 0556 613c 590b 6fbb 9413 2e3d
00000090: 89de 64bc 829a 78bd cf00 d0bd 012f 4dbb
000000a0: 7b6c d73d b34f 12be 26ef 603c 1725 823b
000000b0: 61db 6c3d bdf2 383d aa0b b1bc ebba f83d
000000c0: f799 f6bd c76b 7c3d cf34 97bd 52f0 c23c
000000d0: 6558 d43c b076 bf3c bebb e83c c456 c8bc
000000e0: 051e 073d 1bd3 b3bc 2804 983d 97b8 323c
000000f0: 5260 49bd e916 bdbc d549 453d a352 043a
00000100: 9b6d f7bc daf5 0b3d 566e 11bd f5c9 733d
00000110: 0669 55bd 1b1a 653d 9d5e 06be 804c c63d
00000120: 82b8 e0bd bebd 503d 6cc5 1cbd 48a3 3d3d
00000130: 8d48 863a a874 9f3d 57dd e1bc efe1 aa3c
00000140: 719d 4c3c 5474 c2bd c66f 183c fa11 15bd
00000150: b963 143d 70fc 023d 4df1 8c3c 4b46 86b9
00000160: 8637 ffbc 929e aebc 840b 7fbd 79aa 863d
00000170: 98b9 e9bc 6bea a4bc 08a5 083d 8444 9aba
00000180: 9c27 7d3c 2c21 12bd 2941 1c3d 73cb 873d
00000190: 4f6a 96bd b018 223d 1f4b a6bd 1892 37bd
000001a0: ba8f ec3d 6ee2 63bd e0be 7a3d c6c4 04bd
000001b0: c761 213c 55d3 45bd 2f13 163d 8c79 2fbd
000001c0: 0da3 153d 4596 54ba 9c0f 83bc 8c53 3c3d
000001d0: e062 a5bc dcdd 2d3d b3d7 b6ba f1aa 88bc
000001e0: e534 203d b9a6 0fba 6cef 3bbd 9300 4d3d
000001f0: 996b 5abd 14d6 56bd 11bf 57bc 83eb 3d3d
00000200: fcd3 8d3c 8271 31bd 26df d9bd 144b 3dbd
00000210: 9fb1 3cba c66f 9f3d baf9 20bd 85b7 f33d
00000220: 98cf 9abd 478a 33bc fd5b 423d 3ff6 29bc
00000230: 7111 82bc 345e 933d 51fa 86bb 9830 f33c
00000240: b36b afbb 3e5e 923a a362 04bc 1a6d 6b3d
00000250: e099 fdbd adfb 9dbd fc2d 41bd 34e1 083d
00000260: 2eb8 893c ceeb c7bc 7208 563d 4d3e 91bd
00000270: 7136 c93d f9d4 653d 5588 97bd 9e3b 15be
00000280: a14c 10be f000 743d 44b6 71bd d6b1 c3bd
00000290: 997b c7bc 7fac 0e3e f9be 54bd 9e40 b83c
000002a0: a183 863d 13f9 c33b f496 88bc 166e 483d
000002b0: 09ef 543c 934c 81bc d167 ecbb 2d91 763c
000002c0: 9b69 993d ed45 bfbd cbbb ecbc cef2 103d
000002d0: 9303 53ba 5881 adbd 2a50 38bd 6166 1e3e
000002e0: f8c5 983d 3905 9d3d c4ba 04bf 89db 35bc
000002f0: 15d3 ba3c dde3 5a3b f6fb 64bc 954f e83c
00000300: ebf5 90bc 9126 53bd 73ac 823d 136f f83d
00000310: 7732 07bd 00cb 273d 2aef e13d a064 333d
00000320: f093 7ebd 5f82 be39 d386 763d ed30 883d
00000330: 49f4 44bd f7f0 a03d 4ef1 6fbd b71f 873d
00000340: 0ae4 de3c 7622 36bc 1dde 8abc 8d8f 59bc
00000350: cffe 993c 46dd 37bd a96c 6abc 00a5 77bd
00000360: 15a7 87bd d6db 953d 27fc 8c3b fc49 88bd
00000370: 129b c03c 9c6e 9dbc c3b5 3b3d 1bdd b5bd
00000380: 2265 48bd 1861 2dbd c038 573d 62a9 e7bd
00000390: 1b5c 4cbd 812b d4bc 11a9 f3bd bb94 453c
000003a0: 828b 963d 8406 f8bd 5ddc 603e b409 5fbe
000003b0: 7e06 823d 3778 5d3d 06cb b43c a4cf 02bd
000003c0: e961 133b 30b3 3abc 717c 083d 3d1d 1e3c
000003d0: 0fd2 403d 9e29 c13c 2e90 c1bd 1aeb 503d
000003e0: 59fb fbbb 6fc4 2c3d ebdd 87bd 36e5 5dbc
000003f0: 9dbb bcbc d2bd 073d 2f10 afbd 1931 9a3d
0.016174832 -0.058775827 -0.15335205 0.08566216 0.0531901 0.3024205 -0.10695523 0.20092364
-0.08423346 0.11239634 -0.093287244 0.12590387 0.06543288 -0.023059722 0.021780591 -0.070969336
-0.02760687 -0.05528957 -0.08457003 -0.056116864 -0.09381981 -0.019175239 -0.12552254 0.02218062
0.056927014 -0.03071696 0.058982912 -0.069307566 0.07081627 -0.035268128 0.0016695849 -0.0017418404
0.0373371 0.013753419 -0.003647527 0.04249914 -0.013969072 -0.060694225 -0.10156404 -0.0031308534
0.10518738 -0.14288215 0.013728892 0.0039717066 0.057826404 0.04515337 -0.021612007 0.12145027
-0.12041085 0.061626222 -0.07383119 0.023796234 0.025921056 0.023372024 0.028409835 -0.024455436
0.032987613 -0.021951249 0.07422668 0.010908267 -0.049164124 -0.023082213 0.048166115 0.0005047714
-0.030203631 0.03417001 -0.035505615 0.059518773 -0.05210211 0.0559331 -0.1312203 0.0968256
-0.10972692 0.050962202 -0.038274214 0.046298295 0.001024501 0.07785922 -0.027571363 0.020859687
0.012488709 -0.09494844 0.009303993 -0.036394097 0.036227915 0.031979024 0.017204905 -0.00025610844
-0.031154405 -0.021315847 -0.06226684 0.06575484 -0.02853088 -0.02013131 0.03336051 -0.0011769687
0.015451338 -0.035676166 0.03814808 0.06630602 -0.073444955 0.039574325 -0.08119797 -0.04481706
0.11550851 -0.055635862 0.06121719 -0.03241422 0.009849972 -0.048297245 0.03663939 -0.042840526
0.03653245 -0.000810955 -0.015998654 0.045978114 -0.020188749 0.04244791 -0.0013949781 -0.016683074
0.039112944 -0.00054798607 -0.045882627 0.050049376 -0.05332527 -0.052450255 -0.013168112 0.04636718
0.017312996 -0.04332114 -0.10638265 -0.04621418 -0.00071980985 0.07784991 -0.039300658 0.11900238
-0.075591266 -0.010958261 0.047451008 -0.010373651 -0.015877457 0.07195702 -0.0041191955 0.029686257
-0.005353415 0.0011167002 -0.008080157 0.057477094 -0.12382865 -0.07714019 -0.047162995 0.033417895
0.016811457 -0.024404433 0.052254148 -0.07091961 0.09824837 0.05611131 -0.0739905 -0.14573523
-0.14091732 0.059571207 -0.059011713 -0.09555404 -0.024350928 0.1393299 -0.05193994 0.02249175
0.06568075 0.0059806197 -0.016673543 0.04893311 0.012996444 -0.015783584 -0.0072145243 0.015049261
0.07490846 -0.09339509 -0.02889814 0.035387807 -0.0008049544 -0.08471936 -0.044998325 0.15468742
0.074596345 0.07667012 -0.5184748 -0.011099705 0.02280573 0.0033399977 -0.013976088 0.02835826
-0.017695388 -0.05155045 0.06380548 0.12130561 -0.03300711 0.04096508 0.11031945 0.043797135
-0.062152803 0.00036336758 0.060187172 0.06649957 -0.04808453 0.078584604 -0.058579735 0.06597846
0.027208347 -0.011116615 -0.016951615 -0.013278854 0.01879826 -0.044888757 -0.014308133 -0.06046009
-0.06623665 0.07317321 0.00430252 -0.066547364 0.023511443 -0.019217782 0.04582764 -0.08880063
-0.048924573 -0.042328924 0.052544355 -0.11311604 -0.049892526 -0.02589965 -0.11897481 0.012059386
0.07350828 -0.12110618 0.21959062 -0.21781045 0.063488945 0.054069724 0.022069465 -0.031936303
0.002248878 -0.011395261 0.0333218 0.009650526 0.047075327 0.023579415 -0.09451328 0.05100546
-0.007689875 0.04217952 -0.06634124 -0.013543418 -0.02303868 0.03314001 -0.08548009 0.07528896

fc1.bias f4 [256]
00000000: 3112 40bf ce20 11bf 8813 44bf 52d1 0dbf
00000010: 0c85 ddbe d9fb 27bf 5300 cabe 4632 0cbf
00000020: 9629 19bf aba7 29bf 82d1 d0be eb05 3abf
00000030: 0f93 39bf b62f 23bf be3a 18bf 0a0a fdbe
00000040: 112e 25bf abf0 55bf c414 06bf 2a8f dfbe
00000050: b5f4 14bf ab45 14bf b1f7 22bf 3559 fdbe
00000060: ad1f e3be 3bc7 03bf 1b19 12bf 6c56 43bf
00000070: 6fc3 fdbe ff55 f0be b047 ddbe 9e15 0cbf
00000080: 6f24 f6be bc14 7fbf 4c6b 00bf 007a a9be
00000090: aa7a 05bf 0055 d3be a315 39bf 7af7 a8be
000000a0: 5ebc 28bf 0cb8 dfbe 215d 3ebf 7097 eabe
000000b0: 5ebe 10bf d879 18bf 87c1 12bf 48d4 c0be
000000c0: b9e3 f1be e5a6 dabe 7088 0bbf 73a4 69bf
000000d0: 01eb e7be 68c5 8fbe 5ee8 eabe c2da 30bf
000000e0: 9a8f 09bf 7f2f 02bf bd5b 0abf 433d 1cbf
000000f0: d99b eebe e240 e9be 24a0 9dbe ee7f 13bf
00000100: 4ed7 37bf ef9e 51bf 642c 03bf b9c1 a5be
00000110: 0345 5ebf f372 0ebf b101 56bf 3243 44bf
00000120: ec4b 82be c69b debe 4a50 fabe 5f03 64bf
00000130: df33 2dbf b736 53bf 9b29 59bf 12b7 25bf
00000140: 7776 28bf 3959 00bf 02bb d1be 21ba ddbe
00000150: 6069 25bf fa65 00bf 0bd4 24bf 0388 f0be
00000160: 4595 41bf e468 0abf 8297 84bf eab1 1cbf
00000170: 65b3 4cbf d2b7 55bf 4c59 1fbf 2f62 12bf
00000180: 3edd 0cbf 1c44 1fbf 7b8f 3ebf 5359 1bbf
00000190: 9809 e7be 98f3 e4be 9eb9 fcbe 6ef1 09bf
000001a0: 33b4 4cbf f45a 5abf 1198 e3be c3c9 fcbe
000001b0: a748 d5be 28e7 3bbf 5917 d5be 0154 d1be
000001c0: dc3f a9be 0954 cebe 5d5d fcbe ea01 f8be
000001d0: be1f 25bf d3c0 f6be e483 efbe 94d0 d3be
000001e0: c28f a3be ad94 2fbf 3e7f 0ebf 916d b2be
000001f0: baab 29bf 1503 f4be f655 04bf 0a97 cfbe
00000200: 82d3 13bf d7a8 29bf 2011 f5be 9d33 3fbf
00000210: f6f7 b9be 4ba1 08bf 00f3 73bf 5b4b 50bf
00000220: 70f3 d7be 2fcf 3fbf 5c45 e9be 4e59 7cbf
00000230: d063 06bf 0be5 7ebf a2ed 12bf 2ef4 10bf
00000240: 7dcf 0fbf 8cdd 39bf 5069 04bf ca1e 02bf
00000250: 2b47 6cbf fae8 22bf dfd2 0ebf 994f 51bf
00000260: 85e8 03bf 9a27 35bf 7b4c 0abf 2e43 08bf
00000270: f5cc d3be fd16 59bf 97af f6be e3f8 03bf
00000280: 1f1d 19bf f2d8 40bf 1b34 fcbe 3994 e7be
00000290: 67b6 46bf 70f1 cdbe 82b6 f7be dac9 bcbe
000002a0: 3c5d 4dbf c72f d8be 5f5a 13bf bda1 bcbe
000002b0: cd10 42bf 35ee 30bf 5f93 1ebf dd35 11bf
000002c0: 7564 e5be 7f4b dbbe 3a24 13bf be9e c8be
000002d0: 030f 13bf 7901 12bf ddda 61bf 0c80 35bf
000002e0: ea8d 21bf 74d7 23bf b32e 05bf d650 d7be
000002f0: bbe3 f0be d0d8 d1be e5de 44bf 1b21 1abf
00000300: e342 1abf 1213 62bf ddb3 5cbf dcf9 f8be
00000310: b390 18bf d77e ecbe 672b 3abf d25f 06bf
00000320: ad18 29bf e2dc f1be 1abb 0cbf c981 5abf
00000330: 7839 12bf 80e8 05bf 9d7a a9be a606 f4be
00000340: 2e1a 02bf 7dfc ddbe 405f 0fbf a2f7 42bf
00000350: 5b6c 39bf bfad e7be c671 07bf 9139 4bbf
00000360: 5196 01bf bbdc e1be 457d 48bf 03c0 edbe
00000370: b99e 10bf 73bb f4be 50f3 d2be cda8 4fbf
00000380: dfd7 08bf f45c 61bf 06e7 1bbf 46dd afbe
00000390: 907c 37bf 2e10 f8be b4a4 dbbe cba8 3abf
000003a0: b670 05bf d67c 29bf 12c4 22bf 0d19 3cbf
000003b0: 6e87 10bf 38f3 a1be e0d1 cfbe 6a49 28bf
000003c0: 9eb3 16bf b70b d0be 1fd0 d9be 62a0 c6be
000003d0: 8582 f3be e667 18bf 0c59 c7be 9fb5 8ebe
000003e0: 04e1 c5be 353e 1fbf 2adb e4be afba 0dbf
000003f0: 2861 dabe 8d95 f7be 0daf 2dbf 42ac 3dbf
-0.7502776 -0.5669068 -0.765923 -0.5539752 -0.4326557 -0.65618664 -0.39453372 -0.5476421
-0.5982908 -0.66271466 -0.40784842 -0.7266528 -0.7249002 -0.63744676 -0.59464633 -0.49421722
-0.64523417 -0.83570355 -0.52375436 -0.43663913 -0.58185893 -0.57918805 -0.636592 -0.49482122
-0.44360104 -0.51475877 -0.5706956 -0.76303744 -0.49563166 -0.4694061 -0.43218756 -0.54720485
-0.48074672 -0.99641013 -0.5016372 -0.3310089 -0.52140296 -0.41275787 -0.7229864 -0.3300131
-0.65912426 -0.43695104 -0.74360853 -0.45818663 -0.5654048 -0.5956092 -0.5732655 -0.37661958
-0.4724405 -0.42705455 -0.5450506 -0.91266555 -0.4529648 -0.28080297 -0.45880407 -0.690838
-0.53734744 -0.50853723 -0.5404623 -0.6103098 -0.46603277 -0.45557314 -0.3078624 -0.5761708
-0.71812904 -0.8188314 -0.5123961 -0.3237436 -0.86824054 -0.5564415 -0.8359633 -0.7666503
-0.2544855 -0.4347822 -0.4888938 -0.89067644 -0.67657274 -0.82505363 -0.8482911 -0.6473247
-0.65805763 -0.5013614 -0.40962988 -0.43306068 -0.64613914 -0.50155604 -0.6438605 -0.4697877
-0.7561839 -0.540663 -1.0358737 -0.61208975 -0.79961234 -0.8348361 -0.6224563 -0.57181066
-0.5502509 -0.622133 -0.74437684 -0.6068317 -0.45124507 -0.44717097 -0.49360365 -0.5388402
-0.7996246 -0.85295033 -0.44451955 -0.49372682 -0.41656992 -0.7339959 -0.41619375 -0.40884402
-0.33056533 -0.4029849 -0.4928998 -0.4843896 -0.6450156 -0.48193988 -0.46780312 -0.4137007
-0.31945616 -0.68586236 -0.55662906 -0.34849218 -0.6627766 -0.476586 -0.51693666 -0.4054492
-0.5774461 -0.66273254 -0.47864628 -0.7468813 -0.36321992 -0.53371114 -0.95292664 -0.81364983
-0.42177916 -0.7492551 -0.4556073 -0.9857377 -0.5249605 -0.9956824 -0.5739385 -0.5662259
-0.56175977 -0.7260368 -0.51723194 -0.5082823 -0.92296094 -0.63636744 -0.55790514 -0.8176208
-0.5152667 -0.7076355 -0.5402295 -0.5322751 -0.41367307 -0.848007 -0.4818084 -0.51551646
-0.5981006 -0.7533103 -0.49258503 -0.45230272 -0.77622074 -0.40223265 -0.4838143 -0.3687275
-0.8022039 -0.4222395 -0.5755977 -0.36842147 -0.75806886 -0.69113475 -0.6194362 -0.56722814
-0.44803205 -0.42831036 -0.5747715 -0.3918361 -0.5744478 -0.570335 -0.88224584 -0.7089851
-0.6310717 -0.6400063 -0.5202438 -0.4205386 -0.47048745 -0.40985727 -0.7690261 -0.60206765
-0.6025831 -0.8831035 -0.8621195 -0.48628128 -0.59595793 -0.4619052 -0.72722477 -0.5248996
-0.6605328 -0.47238833 -0.54972994 -0.85354286 -0.5711894 -0.5230789 -0.3310136 -0.47661322
-0.508212 -0.43356696 -0.56004715 -0.7615911 -0.7243096 -0.45249745 -0.5290798 -0.79384714
-0.5061999 -0.44113716 -0.78316146 -0.46435556 -0.5649219 -0.47799262 -0.41201258 -0.81116945
-0.53454393 -0.8803246 -0.6089939 -0.34348506 -0.7167444 -0.48449844 -0.42899096 -0.7291381
-0.5212511 -0.6620611 -0.6358043 -0.73475724 -0.5645665 -0.31630874 -0.4058981 -0.6573702
-0.58867824 -0.40633938 -0.42541596 -0.38794237 -0.47560516 -0.59533536 -0.38935125 -0.2787294
-0.38648236 -0.62204295 -0.4469846 -0.5536298 -0.4265225 -0.48356286 -0.6784523 -0.7409097

fc2.weight f4 [256, 256]
00000000: 34af 37ba d9d5 a1b9 c9f1 1d3b 26e8 1a3b
00000010: f0ac 9e3a edf7 ceb8 7f84 ec3a b4c6 2db9
00000020: 0df4 4239 b49d ffb8 91ab 74ba ccfa f03a
00000030: f6a2 f13a f7bf 583b 3033 cbb9 cb75 e8b8
00000040: 7dca 343a 9cab ddb9 39d9 1fbb df4f 8f3a
00000050: b4fb 493a 62dd b1ba 4265 30ba 183e a4b7
00000060: 9b21 7db9 d39a 7a3a a391 e13a 94c7 5b3a
00000070: 4778 97ba eff8 d33a 7b93 1e3a 3f27 07bb
00000080: 13a5 e6ba a89f 72ba cfbb d8ba 6aa4 2d3a
00000090: 2ede 333a 658c edb9 718c 40bb d382 09b9
000000a0: 2fcd 553b a59f 1bba b246 183b 9491 1e3a
000000b0: 4578 83ba cd28 6fb9 515b 8dbb e549 373a
000000c0: a2cb 673a cc21 adba 4cc5 433b 762e 183a
000000d0: 3e54 afba 7fb2 3fba 86a0 b8ba 35d4 19bb
000000e0: b410 6c3a 1362 48b9 ddd8 a4b9 ae80 08ba
000000f0: e4e0 fb3a 0e4b e3ba 8459 4a3a 7c7a 103b
00000100: e6b5 cfb8 6229 ab3a 1c85 9eba 035d 37bb
00000110: 443a c9b9 a39d d6ba 33b0 b3ba 9deb 673b
00000120: 6104 b53a 616f 09bb d414 81b8 ab0e cb3a
00000130: dafe 23bb 5b56 6fba d860 873a 107f 5cb8
00000140: a384 7b3a e79c 943a eb8b ae3a a84e ae3a
00000150: e7f4 d43a d009 eb38 a4b1 e239 2e9e 933a
00000160: 468a cd3a b6c3 cf3a e42d 093a 0ca0 ebba
00000170: f0b8 0b3b f18e 9ab9 11bf a93a e99f 263b
00000180: fd4a a2ba 3bbe e1b8 5a5c c33a 6c65 3a39
00000190: e302 463b f850 98ba 8df6 a7ba c194 b63a
000001a0: 0a71 9fb9 23de 1eba f9c7 c5b8 674c dcba
000001b0: 85a7 913a 2476 c3b9 93b7 6f3a 76fe b4b9
000001c0: fbd1 1838 92a3 a7ba 1a71 6f3a 93b0 9cb9
000001d0: 511b 9cba 63d3 ddba 72ce 2aba 77ce 9f38
000001e0: c775 b3ba 6c3c 2aba d873 abba 1a3c 293b
000001f0: 60ca a23a d09f 9cba de98 1c3b 7651 fa3a
00000200: baaf dbba daa5 bcba fa1d 9838 e9db 27bb
00000210: b49f 373a d666 9f39 367f dd3a cedc 673a
00000220: 51c8 66ba 4264 af3a 6fa6 a13a 32b7 c939
00000230: e7c4 453a ecaf 0d3b 913a a4ba f9f1 71bb
00000240: ab6a ccba 1331 f2ba 5f17 793a 05cc 77ba
00000250: 6266 8ab9 6bb5 8f3a 78bd 8338 21b2 7b3a
00000260: b2bf bc3a 1c6f 00bb 2b97 323a c8ef b23a
00000270: 6eec c1ba 9dab 51bb 7e28 1a3a b9c9 c23a
00000280: 1001 b43a 4739 45ba 39e6 87b9 514e b63a
00000290: 811b 8dba fa91 38ba cb55 89ba aac5 d6b9
000002a0: 4604 8fba 7662 e439 6396 dd37 ba2f 59ba
000002b0: 8457 f33a 49f8 34ba 7bfc 1338 ad4f 973a
000002c0: f18b 8f3a 09cd a63a 9d98 363a c671 87b8
000002d0: 28e8 443a ece6 f63a 42a7 593a cba7 f438
000002e0: 5619 46ba c623 18bb 8138 94ba 01c7 e539
000002f0: 174d 19ba 109a 48ba 5e4d 523a 1126 ea37
00000300: 5236 c33a 17f2 29ba d3d0 953a 232d 413a
00000310: 630f 2fbb 215d ee3a d457 973a 71d1 3f39
00000320: b524 14bb 4b53 883a 0000 903a 4997 3839
00000330: a967 ebb9 caf5 48ba a9da bb39 c59a 9a3a
00000340: d5a7 bbb9 9f18 ea3a 0c7b f83a d9bd e9b8
00000350: d141 013a b033 51ba 1681 79b9 7a5c 2339
00000360: 7b0d 94ba 4baa 0b3a 2078 5c3a c384 57ba
00000370: e451 85b9 bd2e 94ba 8fcf d3b7 7dfa 65bb
00000380: a35e 853a f360 033b 34f2 8d39 5d5f 033b
00000390: 71a7 b83a 4556 153b 7b53 4f3a 14df 23ba
000003a0: 1a72 5bba 454d 8e3a bfc2 90ba 10cc 01ba
000003b0: c72d a53a 62db 2b39 335b 93ba 9cf7 8f39
000003c0: 3130 743a 1579 803a acd1 29ba 6b7a 3e3a
000003d0: d9cb cdba 3a80 68ba 3baf b2b9 76d7 463a
000003e0: 21c1 853a 3eeb 42bb 86a3 763a 9d5a 22bb
000003f0: 1e9b b33a 7f93 54bb 590e 01bb b8ca 7a3a
-0.00070070033 -0.00030867642 0.0024100414 0.0023636906 0.0012105983 -9.869025e-05 0.0018044858 -0.00016572588
0.00018592198 -0.00012188722 -0.0009333427 0.001838529 0.0018435407 0.0033073404 -0.00038757315 -0.00011084563
0.0006896628 -0.00042280264 -0.002439095 0.0010933838 0.0007705048 -0.0013570006 -0.0006728956 -1.9579238e-05
-0.00024140479 0.0009559814 0.0017209541 0.00083839265 -0.0011556231 0.001617221 0.0006049198 -0.0020622758
-0.0017596803 -0.0009255358 -0.0016535464 0.0006623926 0.00068614155 -0.00045308765 -0.0029380585 -0.00013114074
0.003262352 -0.00059365697 0.0023235497 0.00060489145 -0.001003035 -0.00022808016 -0.0043138643 0.0006991907
0.00088422943 -0.0013208925 0.0029872237 0.0005805263 -0.0013376547 -0.000731267 -0.0014085926 -0.0023472433
0.00090051745 -0.00019110022 -0.00031442093 -0.0005207163 0.0019216803 -0.0017341094 0.00077190273 0.0022045663
-9.9044104e-05 0.0013058598 -0.0012094113 -0.0027979023 -0.0003838112 -0.0016373884 -0.0013709128 0.003538824
0.0013810509 -0.0020970928 -6.155079e-05 0.0015492042 -0.002502373 -0.00091299944 0.0010328544 -5.2570424e-05
0.00095946545 0.0011338264 0.0013316845 0.0013298588 0.0016247303 0.00011207501 0.00043238432 0.0011262351
0.0015681467 0.0015851173 0.00052329735 -0.0017976775 0.0021319948 -0.0002947967 0.0012950619 0.0025424904
-0.0012381967 -0.00010764269 0.0014904842 0.00017776125 0.0030214123 -0.001162081 -0.0012814567 0.001392983
-0.00030411064 -0.00060603226 -9.43094e-05 -0.0016807438 0.0011112547 -0.0003728132 0.0009144481 -0.00034521864
3.6435184e-05 -0.0012789837 0.000913398 -0.00029886197 -0.0011909996 -0.001692396 -0.0006515748 7.620168e-05
-0.0013691717 -0.0006493989 -0.0013080789 0.0025823177 0.0012419932 -0.0011949483 0.0023894827 0.0019097764
-0.0016760745 -0.0014392689 7.2535084e-05 -0.0025613254 0.00070046936 0.00030403462 0.0016898874 0.0008844853
-0.0008803653 0.001338132 0.0012332926 0.000384742 0.00075442943 0.002161975 -0.0012529661 -0.0036917909
-0.0015595754 -0.001847776 0.0009502079 -0.00094527035 -0.00026397692 0.0010964101 6.281858e-05 0.00096014334
0.0014400391 -0.0019597476 0.0006812687 0.0013651783 -0.0014795193 -0.0031993159 0.00058806676 0.0014861143
0.0013733227 -0.00075234886 -0.00025920736 0.0013908838 -0.0010765643 -0.0007040795 -0.0010477839 -0.00040964532
-0.0010911308 0.00043560908 2.6415282e-05 -0.0008285005 0.001856551 -0.00069034524 3.5282672e-05 0.0011544131
0.001095174 0.00127259 0.000696549 -6.4584936e-05 0.00075114006 0.0018837131 0.00083028164 0.000116660805
-0.0007556876 -0.0023214682 -0.0011308343 0.00043826553 -0.0005847974 -0.00076523516 0.0008022393 2.79127e-05
0.0014893508 -0.00064829126 0.0011430032 0.00073690916 -0.0026712052 0.0018185714 0.001154656 0.00018293202
-0.0022604887 0.00104008 0.0010986328 0.00017603966 -0.00044899926 -0.000766602 0.00035830334 0.0011795392
-0.00035792464 0.0017860121 0.0018957569 -0.00011145668 0.0004930767 -0.00079804193 -0.00023794579 0.00015579342
-0.0011295521 0.0005327805 0.0008410234 -0.0008221382 -0.0002542875 -0.0011305433 -2.5249812e-05 -0.003509193
0.0010175299 0.00200468 0.0002707407 0.0020045855 0.0014087987 0.0022787016 0.0007908863 -0.0006251198
-0.00083711895 0.0010856768 -0.0011044367 -0.0004951367 0.0012602144 0.00016389557 -0.001124239 0.0002745957
0.00093150424 0.000980171 -0.0006478082 0.00072661665 -0.001570101 -0.0008869205 -0.00034081363 0.0007585207
0.0010204652 -0.0029742266 0.0009408522 -0.0024773248 0.0013702845 -0.0032436547 -0.001969239 0.00095669506

fc2.bias f4 [256]
00000000: e95b b139 5b92 9db9 7298 3539 4b47 803c
00000010: 40d8 c6b9 ec49 afb9 b8b2 7c39 3a6e e9b7
00000020: d41d 0d3c e0bd 41bc de4c 8e39 410b 4bbc
00000030: a891 ba38 8701 1eba ad4e adb9 7af8 a939
00000040: a7c5 db39 ae52 4639 475a bc3c 0ffa 563a
00000050: aac5 96ba 5270 05b9 8e91 073a 98e7 c2ba
00000060: 3eca 89b7 3f13 77b9 3883 2a39 51f7 99b9
00000070: 1a7a 8239 350c 373a 1762 3839 63e4 a5b8
00000080: 767c 3a3a 3dde f7b8 931e 28b9 a44a 3639
00000090: 8455 cb3a b99e f239 1f8b d7b9 37fb 0c39
000000a0: 6e8a dcb9 9855 1cba 0f1c e639 ed9c 0eb9
000000b0: f0fb ac39 5949 53b7 dea3 d7b9 c13c ffbb
000000c0: d803 9339 6f45 d5b8 1505 d1b9 b8e9 9cb8
000000d0: 16fb e039 56b3 6e3a 0102 c2b9 eeb4 c139
000000e0: 7197 bcb9 acdf e039 6c77 04ba 8d8c 9db9
000000f0: 04c9 0639 b9d6 da39 bab7 3739 ec92 133a
00000100: f130 bb3a 391e 273a 7e90 1aba 2697 98b9
00000110: d4ad da39 1d4e d4b9 e079 32ba a62b 8439
00000120: 69d0 01ba 7636 4f3a 4ef7 0739 9cc5 f5b9
00000130: 78eb 0a39 9c42 95bc c0da 12bd 7deb 8039
00000140: b2ad 03b9 4d2e 51bc 2a01 0f39 fa85 18ba
00000150: 5ce1 a139 e7a7 0bbc 037d ba39 0fab ecb9
00000160: 4cf0 a3bc c5d0 19ba 852f c6b9 ac0b f8b8
00000170: deae 41ba 51af a1b8 dcfc c738 b7ba 23ba
00000180: 3928 bdbc dc9c e739 876e 10b9 fabc 54b9
00000190: b705 1db9 315e e6b9 6881 9ab7 2e97 6039
000001a0: 4355 f9b7 9cbc 5e39 17b7 1b3a 2669 b139
000001b0: f188 5ab9 4f2e 4639 2aca 49b9 d119 9139
000001c0: 0c0c 0b39 4f62 8039 b534 743a 6559 f4b9
000001d0: 522f 8639 4c63 0039 6900 1f39 c83f 0eba
000001e0: 6f04 f2b9 d5be 79b9 3b7a d639 8c7b 44ba
000001f0: e82b 83b9 0c9a 9db9 c88f c839 22ed 0b3d
00000200: c6b9 4b39 7b61 013a b7eb 2939 cf49 88b9
00000210: 6bce 1e3a bea1 30bd d719 a039 7921 51b9
00000220: 161f 93b9 c285 6139 6b99 e5b9 2dba 9737
00000230: d41b 8538 a28e fdb9 e71f 8eb7 a2c1 41b9
00000240: bb15 15ba 56e8 5b39 a331 db39 a331 9639
00000250: 2654 a7b9 04dd 3739 b14e cab9 15cd c0bb
00000260: 13ce 5539 9867 e0b7 c02a a039 4f53 c339
00000270: 3562 143a 0256 cd38 ead9 ffbb 6220 fab7
00000280: 039b a539 6675 8d39 feef c8b9 426a 9b36
00000290: 8774 8eb6 7b4f eb39 539e 4d39 8c38 893c
000002a0: 0a3c 26b9 569f 8db9 f0a8 deb9 26d8 893b
000002b0: 5c25 7e39 fd57 06ba 6cf7 8db9 8d1f a7b9
000002c0: dc6b 0eb9 81c3 1c39 9b54 3f39 0f77 5cb9
000002d0: 10a0 a9b8 f17b b3b9 e9a2 bb39 f9db 8eb9
000002e0: dcd3 6dba 1fbc 29ba 0758 efb9 40ce b539
000002f0: bb73 183a d1b5 1c3a fd82 f139 f1c8 e0b8
00000300: 4668 22bc 77a5 bf39 c3f0 d9b8 8c9a 13b9
00000310: c4b8 143a 3493 3e3a c3ea 9f3c 0be5 a239
00000320: 21c2 d6b9 6a83 2e39 ac37 cf39 c8d5 5fb8
00000330: 8ec0 16ba 687a 25ba 5861 eab8 a37f ab39
00000340: 2700 e039 6971 2139 03bb c5b9 55b7 d5bc
00000350: 174e 133b eae9 eab9 a832 b638 e414 adb9
00000360: 36f0 163a f5ca c439 4826 bd39 0d10 373a
00000370: 9d62 51b9 1301 523a b1a1 2e39 2d39 38b8
00000380: ae82 41ba 5fd1 e7b9 4e9c 44ba 943d 4639
00000390: c0c6 bbbc c2d6 a7b9 fab7 a838 987d 5939
000003a0: cf09 6d3a 39bc 1439 28e5 ae3b f8b2 ddb9
000003b0: ef2f 1839 d3a5 f738 e8f2 dfbc 4102 e83c
000003c0: fc9b 1539 d107 0539 395a cfb6 8b67 f43c
000003d0: 1b89 f038 40c4 19ba be38 193a 1971 dab9
000003e0: b47f 9eb9 33cf 74b8 3d48 6db7 b3b0 653a
000003f0: c9f1 8b39 580a 6439 ffc1 5a3a 87d7 e439
0.0003382855 -0.00030054417 0.00017318295 0.015658995 -0.00037926622 -0.00033433677 0.0002409917 -2.7827093e-05
0.008613069 -0.011825055 0.0002714162 -0.01239282 8.896302e-05 -0.0006027449 -0.0003305575 0.0003241932
0.00041918198 0.00018913552 0.022992266 0.0008200714 -0.0011503 -0.00012725711 0.00051715306 -0.0014870046
-1.6425849e-05 -0.00023562925 0.00016261346 -0.000293667 0.00024886505 0.0006982715 0.00017584149 -7.9103535e-05
0.0007113883 -0.00011819273 -0.00016033118 0.00017384678 0.0015513157 0.00046276095 -0.0004111165 0.00013445025
-0.00042064808 -0.0005963682 0.00043889924 -0.00013600635 0.00032994105 -1.2593658e-05 -0.00041130086 -0.007789225
0.0002804089 -0.000101695645 -0.00039867373 -7.482193e-05 0.00042911683 0.00091057026 -0.00037004057 0.00036946632
-0.00035970987 0.00042891258 -0.00050531956 -0.00030050092 0.0001285412 0.0004174018 0.00017520683 0.0005629498
0.0014281553 0.0006375048 -0.0005896165 -0.00029104314 0.00041709712 -0.0004049399 -0.0006808322 0.00025209523
-0.0004952015 0.00079045387 0.00012966731 -0.00046877272 0.00013248425 -0.018220238 -0.035853148 0.00024589515
-0.0001255784 -0.012767387 0.00013637976 -0.0005818304 0.0003087622 -0.008523918 0.00035569826 -0.00045140876
-0.020012043 -0.0005867596 -0.00037800908 -0.000118277356 -0.0007388423 -7.7097335e-05 9.536158e-05 -0.0006245779
-0.023090469 0.00044176623 -0.00013774085 -0.00020288295 -0.00014974816 -0.00043939197 -1.841849e-05 0.00021418624
-2.9722816e-05 0.00021241832 0.0005940063 0.00033838412 -0.00020841115 0.00018900003 -0.00019244166 0.0002767579
0.00013260561 0.00024487308 0.0009315715 -0.0004660591 0.00025593728 0.00012244022 0.00015163574 -0.0005426374
-0.0004616114 -0.00023817581 0.0004090833 -0.00074952166 -0.0002501898 -0.00030060147 0.00038254098 0.034161694
0.00019428795 0.0004935485 0.00016204907 -0.00025994933 0.00060579804 -0.043123 0.0003053683 -0.00019944263
-0.00028061186 0.00021507501 -0.0004379259 1.8087298e-05 6.3471176e-05 -0.0004836219 -1.6942575e-05 -0.00018478048
-0.0005687137 0.0002097202 0.00041807917 0.00028647212 -0.00031915418 0.00017534575 -0.00038587072 -0.0058838227
0.00020390032 -2.675112e-05 0.0003054943 0.00037255368 0.0005660386 9.791182e-05 -0.00780796 -2.9817402e-05
0.00031586745 0.00026981084 -0.0003832578 4.63173e-06 -4.2454953e-06 0.0004488191 0.00019609304 0.016750596
-0.0001585336 -0.0002701233 -0.00042469008 0.004206675 0.00024237245 -0.00051248056 -0.0002707796 -0.0003187623
-0.00013582356 0.0001495015 0.00018246697 -0.00021025188 -8.088362e-05 -0.00034233884 0.00035788797 -0.00027248243
-0.0009072402 -0.00064748706 -0.00045651218 0.00034676678 0.0005815585 0.00059780205 0.00046064696 -0.000107185806
-0.009912556 0.0003655364 -0.00010392212 -0.00014076586 0.0005673284 0.000726986 0.019521123 0.00031069698
-0.00040961898 0.00016642889 0.00039523595 -5.3366442e-05 -0.0005750739 -0.00063124904 -0.00011176121 0.00032710758
0.00042724723 0.00015396405 -0.00037714103 -0.026088396 0.0022476965 -0.00044806238 8.687872e-05 -0.00033012696
0.000575784 0.00037535248 0.0003607741 0.0006983288 -0.0001996853 0.00080110243 0.00016654168 -4.3922268e-05
-0.00073818385 -0.00044215747 -0.0007500098 0.00018905691 -0.02292192 -0.0003201273 8.0451326e-05 0.0002074152
0.0009042294 0.00014184498 0.005337376 -0.00042285747 0.00014513706 0.00011808765 -0.027337506 0.028321387
0.00014267856 0.0001268678 -6.179584e-06 0.02983453 0.0001146963 -0.00058657303 0.0005844942 -0.00041664465
-0.00030231255 -5.8367103e-05 -1.414312e-05 0.0008761987 0.0002669229 0.00021747628 0.0008344948 0.0004364813
